MaunaNet4Aug(
  (conv1): Conv2d(1, 3, kernel_size=(3, 3), stride=(2, 2), padding=(1, 1))
  (bn1): BatchNorm2d(3, eps=1e-05, momentum=0.1, affine=True, track_running_stats=True)
  (pool1): MaxPool2d(kernel_size=2, stride=2, padding=0, dilation=1, ceil_mode=False)
  (conv2): Conv2d(3, 64, kernel_size=(3, 3), stride=(1, 1), padding=(1, 1))
  (bn2): BatchNorm2d(64, eps=1e-05, momentum=0.1, affine=True, track_running_stats=True)
  (pool2): MaxPool2d(kernel_size=2, stride=2, padding=0, dilation=1, ceil_mode=False)
  (conv3): Conv2d(64, 128, kernel_size=(3, 3), stride=(1, 1), padding=(1, 1))
  (bn3): BatchNorm2d(128, eps=1e-05, momentum=0.1, affine=True, track_running_stats=True)
  (pool3): MaxPool2d(kernel_size=2, stride=2, padding=0, dilation=1, ceil_mode=False)
  (conv4): Conv2d(128, 256, kernel_size=(3, 3), stride=(1, 1), padding=(1, 1))
  (bn4): BatchNorm2d(256, eps=1e-05, momentum=0.1, affine=True, track_running_stats=True)
  (pool4): MaxPool2d(kernel_size=2, stride=2, padding=0, dilation=1, ceil_mode=False)
  (avgpool): AvgPool2d(kernel_size=4, stride=4, padding=0)
  (fc1): Linear(in_features=1024, out_features=4, bias=True)
)
MaunaNet4Aug(
  (conv1): Conv2d(1, 3, kernel_size=(3, 3), stride=(2, 2), padding=(1, 1))
  (bn1): BatchNorm2d(3, eps=1e-05, momentum=0.1, affine=True, track_running_stats=True)
  (pool1): MaxPool2d(kernel_size=2, stride=2, padding=0, dilation=1, ceil_mode=False)
  (conv2): Conv2d(3, 64, kernel_size=(3, 3), stride=(1, 1), padding=(1, 1))
  (bn2): BatchNorm2d(64, eps=1e-05, momentum=0.1, affine=True, track_running_stats=True)
  (pool2): MaxPool2d(kernel_size=2, stride=2, padding=0, dilation=1, ceil_mode=False)
  (conv3): Conv2d(64, 128, kernel_size=(3, 3), stride=(1, 1), padding=(1, 1))
  (bn3): BatchNorm2d(128, eps=1e-05, momentum=0.1, affine=True, track_running_stats=True)
  (pool3): MaxPool2d(kernel_size=2, stride=2, padding=0, dilation=1, ceil_mode=False)
  (conv4): Conv2d(128, 256, kernel_size=(3, 3), stride=(1, 1), padding=(1, 1))
  (bn4): BatchNorm2d(256, eps=1e-05, momentum=0.1, affine=True, track_running_stats=True)
  (pool4): MaxPool2d(kernel_size=2, stride=2, padding=0, dilation=1, ceil_mode=False)
  (avgpool): AvgPool2d(kernel_size=7, stride=7, padding=0)
  (fc1): Linear(in_features=256, out_features=4, bias=True)
)
[train epoch 1/10] | loss 1.177 | nw acc 0.485 | time 3 min 7 sec
cat 0: [444, 210, 106, 132] and [0.4978, 0.2354, 0.1188, 0.148]
cat 1: [609, 1379, 423, 804] and [0.1894, 0.4289, 0.1316, 0.2501]
cat 2: [15, 25, 8, 15] and [0.2381, 0.3968, 0.127, 0.2381]
cat 3: [401, 826, 298, 1861] and [0.1184, 0.2439, 0.088, 0.5496]
[test epoch 1/10] | loss 0.336 | nw acc 0.389 | time 0 min 17 sec
…
[train epoch 8/10] | loss 0.90858 | nw acc 0.657 | time 3 min 13 sec
cat 0: [873, 192, 132, 194] and [0.6276, 0.138, 0.0949, 0.1395]
cat 1: [243, 1678, 204, 362] and [0.0977, 0.6747, 0.082, 0.1456]
cat 2: [90, 78, 285, 87] and [0.1667, 0.1444, 0.5278, 0.1611]
cat 3: [263, 492, 214, 2169] and [0.0838, 0.1568, 0.0682, 0.6912]
[test epoch 8/10] | loss 0.373 | nw acc 0.32 | time 0 min 16 sec
cat 0: [0, 260, 172, 317] and [0.0, 0.3471, 0.2296, 0.4232]
cat 1: [0, 464, 130, 314] and [0.0, 0.511, 0.1432, 0.3458]
cat 2: [0, 0, 0, 0] and [0.0, 0.0, 0.0, 0.0]
cat 3: [0, 13, 69, 151] and [0.0, 0.0558, 0.2961, 0.6481]
MaunaNet4Aug(
  (conv1): Conv2d(1, 3, kernel_size=(3, 3), stride=(2, 2), padding=(1, 1))
  (bn1): BatchNorm2d(3, eps=1e-05, momentum=0.1, affine=True, track_running_stats=True)
  (pool1): MaxPool2d(kernel_size=2, stride=2, padding=0, dilation=1, ceil_mode=False)
  (conv2): Conv2d(3, 64, kernel_size=(3, 3), stride=(1, 1), padding=(1, 1))
  (bn2): BatchNorm2d(64, eps=1e-05, momentum=0.1, affine=True, track_running_stats=True)
  (pool2): MaxPool2d(kernel_size=2, stride=2, padding=0, dilation=1, ceil_mode=False)
  (conv3): Conv2d(64, 128, kernel_size=(3, 3), stride=(1, 1), padding=(1, 1))
  (bn3): BatchNorm2d(128, eps=1e-05, momentum=0.1, affine=True, track_running_stats=True)
  (pool3): MaxPool2d(kernel_size=2, stride=2, padding=0, dilation=1, ceil_mode=False)
  (conv4): Conv2d(128, 256, kernel_size=(3, 3), stride=(1, 1), padding=(1, 1))
  (bn4): BatchNorm2d(256, eps=1e-05, momentum=0.1, affine=True, track_running_stats=True)
  (pool4): MaxPool2d(kernel_size=2, stride=2, padding=0, dilation=1, ceil_mode=False)
  (avgpool): AvgPool2d(kernel_size=7, stride=7, padding=0)
  (fc1): Linear(in_features=256, out_features=4, bias=True)
)
[train epoch 1/10] | loss 1.1883 | nw acc 0.478 | time 3 min 7 sec
cat 0: [202, 118, 55, 85] and [0.4391, 0.2565, 0.1196, 0.1848]
cat 1: [537, 1404, 460, 753] and [0.1703, 0.4451, 0.1458, 0.2387]
cat 2: [56, 65, 66, 65] and [0.2222, 0.2579, 0.2619, 0.2579]
cat 3: [380, 954, 384, 1972] and [0.103, 0.2585, 0.1041, 0.5344]
[test epoch 1/10] | loss 0.335 | nw acc 0.42 | time 0 min 16 sec
…
