Namespace(batch_size=64, criterion='cross_entropy', cuda=1, data_aug=0, img_size=140, lr=0.005, lr_decay_fact=2.0, lr_decay_freq=10, model=None, model_name='CodingNetwork', model_type='cnn_CodingNetwork_no_patch', momentum=0, n_classes=4, n_epoch=100, optimizer='sgd', random_state=75, rgb=1, st_epoch=0, workers=1)

CodingNetwork(
  (conv1): Conv2d(3, 32, kernel_size=(11, 11), stride=(1, 1))
  (bn1): BatchNorm2d(32, eps=1e-05, momentum=0.1, affine=True, track_running_stats=True)
  (conv2): Conv2d(32, 32, kernel_size=(11, 11), stride=(1, 1))
  (bn2): BatchNorm2d(32, eps=1e-05, momentum=0.1, affine=True, track_running_stats=True)
  (pool2): MaxPool2d(kernel_size=5, stride=2, padding=0, dilation=1, ceil_mode=False)
  (conv3): Conv2d(32, 64, kernel_size=(9, 9), stride=(1, 1))
  (bn3): BatchNorm2d(64, eps=1e-05, momentum=0.1, affine=True, track_running_stats=True)
  (pool3): MaxPool2d(kernel_size=5, stride=2, padding=0, dilation=1, ceil_mode=False)
  (conv4): Conv2d(64, 128, kernel_size=(8, 8), stride=(1, 1))
  (bn4): BatchNorm2d(128, eps=1e-05, momentum=0.1, affine=True, track_running_stats=True)
  (conv5): Conv2d(128, 256, kernel_size=(9, 9), stride=(1, 1))
  (bn5): BatchNorm2d(256, eps=1e-05, momentum=0.1, affine=True, track_running_stats=True)
  (conv6): Conv2d(256, 256, kernel_size=(8, 8), stride=(1, 1))
  (bn6): BatchNorm2d(256, eps=1e-05, momentum=0.1, affine=True, track_running_stats=True)
  (fc1): Linear(in_features=256, out_features=4, bias=True)
)
train patients [42 29 12 55 10 17 30  3 41 15 47 40 13 46 36 50 51 18  4 24 11 44 14 32
 49  7 43 54 45  6 34  0  8 19 23]
train labels [1029 2628 1206 2516]
test patients [25 53 35 31  5 22  2 48  1]
test labels [ 440  549    0 1078]

[train epoch 1/100] | loss 1.1226 | nw acc 0.515 | time 2 min 6 sec
cat 0: [360, 181, 78, 120] and [0.4871, 0.2449, 0.1055, 0.1624]
…
