BenchMarkBn(
  (conv1): Conv2d(1, 3, kernel_size=(3, 3), stride=(2, 2), padding=(1, 1))
  (bn1): BatchNorm2d(3, eps=1e-05, momentum=0.1, affine=True, track_running_stats=True)
  (pool1): MaxPool2d(kernel_size=2, stride=2, padding=0, dilation=1, ceil_mode=False)
  (drop1): Dropout2d(p=0.5)
  (conv2): Conv2d(3, 16, kernel_size=(3, 3), stride=(2, 2), padding=(1, 1))
  (bn2): BatchNorm2d(16, eps=1e-05, momentum=0.1, affine=True, track_running_stats=True)
  (pool2): MaxPool2d(kernel_size=2, stride=2, padding=0, dilation=1, ceil_mode=False)
  (drop2): Dropout2d(p=0.5)
  (conv3): Conv2d(16, 32, kernel_size=(3, 3), stride=(2, 2), padding=(1, 1))
  (bn3): BatchNorm2d(64, eps=1e-05, momentum=0.1, affine=True, track_running_stats=True)
  (pool3): MaxPool2d(kernel_size=2, stride=2, padding=0, dilation=1, ceil_mode=False)
  (drop3): Dropout2d(p=0.25)
  (fc1): Linear(in_features=1568, out_features=4, bias=True)
)
BenchMarkBn(
  (conv1): Conv2d(1, 3, kernel_size=(3, 3), stride=(2, 2), padding=(1, 1))
  (bn1): BatchNorm2d(3, eps=1e-05, momentum=0.1, affine=True, track_running_stats=True)
  (pool1): MaxPool2d(kernel_size=2, stride=2, padding=0, dilation=1, ceil_mode=False)
  (drop1): Dropout2d(p=0.5)
  (conv2): Conv2d(3, 16, kernel_size=(3, 3), stride=(2, 2), padding=(1, 1))
  (bn2): BatchNorm2d(16, eps=1e-05, momentum=0.1, affine=True, track_running_stats=True)
  (pool2): MaxPool2d(kernel_size=2, stride=2, padding=0, dilation=1, ceil_mode=False)
  (drop2): Dropout2d(p=0.5)
  (conv3): Conv2d(16, 32, kernel_size=(3, 3), stride=(2, 2), padding=(1, 1))
  (bn3): BatchNorm2d(32, eps=1e-05, momentum=0.1, affine=True, track_running_stats=True)
  (pool3): MaxPool2d(kernel_size=2, stride=2, padding=0, dilation=1, ceil_mode=False)
  (drop3): Dropout2d(p=0.25)
  (fc1): Linear(in_features=1568, out_features=4, bias=True)
)
[train epoch 1/100] | loss 1.2813 | nw acc 0.398 | time 1 min 41 sec
cat 0: [236, 97, 59, 129] and [0.453, 0.1862, 0.1132, 0.2476]
cat 1: [439, 1031, 388, 907] and [0.1588, 0.3729, 0.1403, 0.328]
cat 2: [3, 13, 0, 13] and [0.1034, 0.4483, 0.0, 0.4483]
cat 3: [791, 1299, 388, 1763] and [0.1865, 0.3063, 0.0915, 0.4157]
[test epoch 1/100] | loss 0.327 | nw acc 0.37 | time 0 min 22 sec
…
